…
Train class distribution : {0: 12221, 1: 206, 2: 233, 3: 1856, 4: 619118, 5: 1752, 6: 585, 7: 192, 8: 106, 9: 421, 10: 774, 11: 55383, 12: 79, 13: 186, 14: 2007, 15: 258, 16: 3498, 17: 414, 18: 3907, 19: 148, 20: 298, 21: 179, 22: 503, 23: 645, 24: 379, 25: 1754, 26: 426, 27: 950, 28: 807, 29: 106, 30: 22236, 31: 173, 32: 1382, 33: 156, 34: 2286, 35: 3006, 36: 9675, 37: 1152, 38: 83, 39: 4613, 40: 658, 41: 2316, 42: 125478, 43: 398, 44: 125, 45: 134, 46: 154}
--------------------------------------------------
Using 2 GPUs.
MODEL SUMMARY
----------------------------------------------------------------
        Layer (type)               Output Shape         Param #
================================================================
            Conv2d-1         [-1, 64, 128, 128]           9,408
            Conv2d-2         [-1, 64, 128, 128]           9,408
       BatchNorm2d-3         [-1, 64, 128, 128]             128
       BatchNorm2d-4         [-1, 64, 128, 128]             128
              ReLU-5         [-1, 64, 128, 128]               0
              ReLU-6         [-1, 64, 128, 128]               0
         MaxPool2d-7           [-1, 64, 64, 64]               0
         MaxPool2d-8           [-1, 64, 64, 64]               0
            Conv2d-9           [-1, 64, 64, 64]          36,864
           Conv2d-10           [-1, 64, 64, 64]          36,864
      BatchNorm2d-11           [-1, 64, 64, 64]             128
      BatchNorm2d-12           [-1, 64, 64, 64]             128
             ReLU-13           [-1, 64, 64, 64]               0
             ReLU-14           [-1, 64, 64, 64]               0
           Conv2d-15           [-1, 64, 64, 64]          36,864
           Conv2d-16           [-1, 64, 64, 64]          36,864
      BatchNorm2d-17           [-1, 64, 64, 64]             128
      BatchNorm2d-18           [-1, 64, 64, 64]             128
             ReLU-19           [-1, 64, 64, 64]               0
       BasicBlock-20           [-1, 64, 64, 64]               0
             ReLU-21           [-1, 64, 64, 64]               0
       BasicBlock-22           [-1, 64, 64, 64]               0
           Conv2d-23           [-1, 64, 64, 64]          36,864
      BatchNorm2d-24           [-1, 64, 64, 64]             128
           Conv2d-25           [-1, 64, 64, 64]          36,864
             ReLU-26           [-1, 64, 64, 64]               0
      BatchNorm2d-27           [-1, 64, 64, 64]             128
             ReLU-28           [-1, 64, 64, 64]               0
           Conv2d-29           [-1, 64, 64, 64]          36,864
           Conv2d-30           [-1, 64, 64, 64]          36,864
      BatchNorm2d-31           [-1, 64, 64, 64]             128
             ReLU-32           [-1, 64, 64, 64]               0
       BasicBlock-33           [-1, 64, 64, 64]               0
      BatchNorm2d-34           [-1, 64, 64, 64]             128
             ReLU-35           [-1, 64, 64, 64]               0
       BasicBlock-36           [-1, 64, 64, 64]               0
           Conv2d-37          [-1, 128, 32, 32]          73,728
           Conv2d-38          [-1, 128, 32, 32]          73,728
      BatchNorm2d-39          [-1, 128, 32, 32]             256
      BatchNorm2d-40          [-1, 128, 32, 32]             256
             ReLU-41          [-1, 128, 32, 32]               0
             ReLU-42          [-1, 128, 32, 32]               0
           Conv2d-43          [-1, 128, 32, 32]         147,456
           Conv2d-44          [-1, 128, 32, 32]         147,456
      BatchNorm2d-45          [-1, 128, 32, 32]             256
      BatchNorm2d-46          [-1, 128, 32, 32]             256
           Conv2d-47          [-1, 128, 32, 32]           8,192
           Conv2d-48          [-1, 128, 32, 32]           8,192
      BatchNorm2d-49          [-1, 128, 32, 32]             256
             ReLU-50          [-1, 128, 32, 32]               0
       BasicBlock-51          [-1, 128, 32, 32]               0
      BatchNorm2d-52          [-1, 128, 32, 32]             256
           Conv2d-53          [-1, 128, 32, 32]         147,456
             ReLU-54          [-1, 128, 32, 32]               0
       BasicBlock-55          [-1, 128, 32, 32]               0
           Conv2d-56          [-1, 128, 32, 32]         147,456
      BatchNorm2d-57          [-1, 128, 32, 32]             256
      BatchNorm2d-58          [-1, 128, 32, 32]             256
             ReLU-59          [-1, 128, 32, 32]               0
             ReLU-60          [-1, 128, 32, 32]               0
           Conv2d-61          [-1, 128, 32, 32]         147,456
           Conv2d-62          [-1, 128, 32, 32]         147,456
      BatchNorm2d-63          [-1, 128, 32, 32]             256
      BatchNorm2d-64          [-1, 128, 32, 32]             256
             ReLU-65          [-1, 128, 32, 32]               0
       BasicBlock-66          [-1, 128, 32, 32]               0
             ReLU-67          [-1, 128, 32, 32]               0
       BasicBlock-68          [-1, 128, 32, 32]               0
           Conv2d-69          [-1, 256, 16, 16]         294,912
           Conv2d-70          [-1, 256, 16, 16]         294,912
      BatchNorm2d-71          [-1, 256, 16, 16]             512
      BatchNorm2d-72          [-1, 256, 16, 16]             512
             ReLU-73          [-1, 256, 16, 16]               0
             ReLU-74          [-1, 256, 16, 16]               0
           Conv2d-75          [-1, 256, 16, 16]         589,824
           Conv2d-76          [-1, 256, 16, 16]         589,824
      BatchNorm2d-77          [-1, 256, 16, 16]             512
      BatchNorm2d-78          [-1, 256, 16, 16]             512
           Conv2d-79          [-1, 256, 16, 16]          32,768
           Conv2d-80          [-1, 256, 16, 16]          32,768
      BatchNorm2d-81          [-1, 256, 16, 16]             512
      BatchNorm2d-82          [-1, 256, 16, 16]             512
             ReLU-83          [-1, 256, 16, 16]               0
             ReLU-84          [-1, 256, 16, 16]               0
       BasicBlock-85          [-1, 256, 16, 16]               0
       BasicBlock-86          [-1, 256, 16, 16]               0
           Conv2d-87          [-1, 256, 16, 16]         589,824
           Conv2d-88          [-1, 256, 16, 16]         589,824
      BatchNorm2d-89          [-1, 256, 16, 16]             512
             ReLU-90          [-1, 256, 16, 16]               0
      BatchNorm2d-91          [-1, 256, 16, 16]             512
           Conv2d-92          [-1, 256, 16, 16]         589,824
             ReLU-93          [-1, 256, 16, 16]               0
      BatchNorm2d-94          [-1, 256, 16, 16]             512
             ReLU-95          [-1, 256, 16, 16]               0
       BasicBlock-96          [-1, 256, 16, 16]               0
           Conv2d-97          [-1, 256, 16, 16]         589,824
      BatchNorm2d-98          [-1, 256, 16, 16]             512
             ReLU-99          [-1, 256, 16, 16]               0
      BasicBlock-100          [-1, 256, 16, 16]               0
          Conv2d-101            [-1, 512, 8, 8]       1,179,648
     BatchNorm2d-102            [-1, 512, 8, 8]           1,024
          Conv2d-103            [-1, 512, 8, 8]       1,179,648
            ReLU-104            [-1, 512, 8, 8]               0
     BatchNorm2d-105            [-1, 512, 8, 8]           1,024
            ReLU-106            [-1, 512, 8, 8]               0
          Conv2d-107            [-1, 512, 8, 8]       2,359,296
          Conv2d-108            [-1, 512, 8, 8]       2,359,296
     BatchNorm2d-109            [-1, 512, 8, 8]           1,024
     BatchNorm2d-110            [-1, 512, 8, 8]           1,024
          Conv2d-111            [-1, 512, 8, 8]         131,072
          Conv2d-112            [-1, 512, 8, 8]         131,072
     BatchNorm2d-113            [-1, 512, 8, 8]           1,024
     BatchNorm2d-114            [-1, 512, 8, 8]           1,024
            ReLU-115            [-1, 512, 8, 8]               0
            ReLU-116            [-1, 512, 8, 8]               0
      BasicBlock-117            [-1, 512, 8, 8]               0
      BasicBlock-118            [-1, 512, 8, 8]               0
          Conv2d-119            [-1, 512, 8, 8]       2,359,296
          Conv2d-120            [-1, 512, 8, 8]       2,359,296
     BatchNorm2d-121            [-1, 512, 8, 8]           1,024
     BatchNorm2d-122            [-1, 512, 8, 8]           1,024
            ReLU-123            [-1, 512, 8, 8]               0
            ReLU-124            [-1, 512, 8, 8]               0
          Conv2d-125            [-1, 512, 8, 8]       2,359,296
          Conv2d-126            [-1, 512, 8, 8]       2,359,296
     BatchNorm2d-127            [-1, 512, 8, 8]           1,024
     BatchNorm2d-128            [-1, 512, 8, 8]           1,024
            ReLU-129            [-1, 512, 8, 8]               0
      BasicBlock-130            [-1, 512, 8, 8]               0
            ReLU-131            [-1, 512, 8, 8]               0
      BasicBlock-132            [-1, 512, 8, 8]               0
AdaptiveAvgPool2d-133            [-1, 512, 1, 1]               0
AdaptiveAvgPool2d-134            [-1, 512, 1, 1]               0
          Linear-135                   [-1, 47]          24,111
          Linear-136                   [-1, 47]          24,111
          ResNet-137                   [-1, 47]               0
          ResNet-138                   [-1, 47]               0
================================================================
Total params: 22,401,246
Trainable params: 22,401,246
Non-trainable params: 0
----------------------------------------------------------------
Input size (MB): 0.75
Forward/backward pass size (MB): 164.01
Params size (MB): 85.45
Estimated Total Size (MB): 250.21
----------------------------------------------------------------
…
