…
Train class distribution : {0: 12221, 1: 206, 2: 233, 3: 1856, 4: 619118, 5: 1752, 6: 585, 7: 192, 8: 106, 9: 421, 10: 774, 11: 55383, 12: 79, 13: 186, 14: 2007, 15: 258, 16: 3498, 17: 414, 18: 3907, 19: 148, 20: 298, 21: 179, 22: 503, 23: 645, 24: 379, 25: 1754, 26: 426, 27: 950, 28: 807, 29: 106, 30: 22236, 31: 173, 32: 1382, 33: 156, 34: 2286, 35: 3006, 36: 9675, 37: 1152, 38: 83, 39: 4613, 40: 658, 41: 2316, 42: 125478, 43: 398, 44: 125, 45: 134, 46: 154}
--------------------------------------------------
MODEL SUMMARY
----------------------------------------------------------------
        Layer (type)               Output Shape         Param #
================================================================
            Conv2d-1         [-1, 64, 128, 128]           9,408
       BatchNorm2d-2         [-1, 64, 128, 128]             128
              ReLU-3         [-1, 64, 128, 128]               0
         MaxPool2d-4           [-1, 64, 64, 64]               0
            Conv2d-5           [-1, 64, 64, 64]          36,864
       BatchNorm2d-6           [-1, 64, 64, 64]             128
              ReLU-7           [-1, 64, 64, 64]               0
            Conv2d-8           [-1, 64, 64, 64]          36,864
       BatchNorm2d-9           [-1, 64, 64, 64]             128
             ReLU-10           [-1, 64, 64, 64]               0
       BasicBlock-11           [-1, 64, 64, 64]               0
           Conv2d-12           [-1, 64, 64, 64]          36,864
      BatchNorm2d-13           [-1, 64, 64, 64]             128
             ReLU-14           [-1, 64, 64, 64]               0
           Conv2d-15           [-1, 64, 64, 64]          36,864
      BatchNorm2d-16           [-1, 64, 64, 64]             128
             ReLU-17           [-1, 64, 64, 64]               0
       BasicBlock-18           [-1, 64, 64, 64]               0
           Conv2d-19          [-1, 128, 32, 32]          73,728
      BatchNorm2d-20          [-1, 128, 32, 32]             256
             ReLU-21          [-1, 128, 32, 32]               0
           Conv2d-22          [-1, 128, 32, 32]         147,456
      BatchNorm2d-23          [-1, 128, 32, 32]             256
           Conv2d-24          [-1, 128, 32, 32]           8,192
      BatchNorm2d-25          [-1, 128, 32, 32]             256
             ReLU-26          [-1, 128, 32, 32]               0
       BasicBlock-27          [-1, 128, 32, 32]               0
           Conv2d-28          [-1, 128, 32, 32]         147,456
      BatchNorm2d-29          [-1, 128, 32, 32]             256
             ReLU-30          [-1, 128, 32, 32]               0
           Conv2d-31          [-1, 128, 32, 32]         147,456
      BatchNorm2d-32          [-1, 128, 32, 32]             256
             ReLU-33          [-1, 128, 32, 32]               0
       BasicBlock-34          [-1, 128, 32, 32]               0
           Conv2d-35          [-1, 256, 16, 16]         294,912
      BatchNorm2d-36          [-1, 256, 16, 16]             512
             ReLU-37          [-1, 256, 16, 16]               0
           Conv2d-38          [-1, 256, 16, 16]         589,824
      BatchNorm2d-39          [-1, 256, 16, 16]             512
           Conv2d-40          [-1, 256, 16, 16]          32,768
      BatchNorm2d-41          [-1, 256, 16, 16]             512
             ReLU-42          [-1, 256, 16, 16]               0
       BasicBlock-43          [-1, 256, 16, 16]               0
           Conv2d-44          [-1, 256, 16, 16]         589,824
      BatchNorm2d-45          [-1, 256, 16, 16]             512
             ReLU-46          [-1, 256, 16, 16]               0
           Conv2d-47          [-1, 256, 16, 16]         589,824
      BatchNorm2d-48          [-1, 256, 16, 16]             512
             ReLU-49          [-1, 256, 16, 16]               0
       BasicBlock-50          [-1, 256, 16, 16]               0
           Conv2d-51            [-1, 512, 8, 8]       1,179,648
      BatchNorm2d-52            [-1, 512, 8, 8]           1,024
             ReLU-53            [-1, 512, 8, 8]               0
           Conv2d-54            [-1, 512, 8, 8]       2,359,296
      BatchNorm2d-55            [-1, 512, 8, 8]           1,024
           Conv2d-56            [-1, 512, 8, 8]         131,072
      BatchNorm2d-57            [-1, 512, 8, 8]           1,024
             ReLU-58            [-1, 512, 8, 8]               0
       BasicBlock-59            [-1, 512, 8, 8]               0
           Conv2d-60            [-1, 512, 8, 8]       2,359,296
      BatchNorm2d-61            [-1, 512, 8, 8]           1,024
             ReLU-62            [-1, 512, 8, 8]               0
           Conv2d-63            [-1, 512, 8, 8]       2,359,296
      BatchNorm2d-64            [-1, 512, 8, 8]           1,024
             ReLU-65            [-1, 512, 8, 8]               0
       BasicBlock-66            [-1, 512, 8, 8]               0
AdaptiveAvgPool2d-67            [-1, 512, 1, 1]               0
           Linear-68                   [-1, 47]          24,111
================================================================
Total params: 11,200,623
Trainable params: 11,200,623
Non-trainable params: 0
----------------------------------------------------------------
Input size (MB): 0.75
Forward/backward pass size (MB): 82.00
Params size (MB): 42.73
Estimated Total Size (MB): 125.48
----------------------------------------------------------------
Loaded checkpoint from epoch 25
…
