…
Train class distribution : {0: 12221, 1: 206, 2: 233, 3: 1856, 4: 619118, 5: 1752, 6: 585, 7: 192, 8: 106, 9: 421, 10: 774, 11: 55383, 12: 79, 13: 186, 14: 2007, 15: 258, 16: 3498, 17: 414, 18: 3907, 19: 148, 20: 298, 21: 179, 22: 503, 23: 645, 24: 379, 25: 1754, 26: 426, 27: 950, 28: 807, 29: 106, 30: 22236, 31: 173, 32: 1382, 33: 156, 34: 2286, 35: 3006, 36: 9675, 37: 1152, 38: 83, 39: 4613, 40: 658, 41: 2316, 42: 125478, 43: 398, 44: 125, 45: 134, 46: 154}
--------------------------------------------------
Using 2 GPUs.
MODEL SUMMARY
----------------------------------------------------------------
        Layer (type)               Output Shape         Param #
================================================================
            Conv2d-1         [-1, 64, 128, 128]           9,408
            Conv2d-2         [-1, 64, 128, 128]           9,408
       BatchNorm2d-3         [-1, 64, 128, 128]             128
       BatchNorm2d-4         [-1, 64, 128, 128]             128
              ReLU-5         [-1, 64, 128, 128]               0
              ReLU-6         [-1, 64, 128, 128]               0
         MaxPool2d-7           [-1, 64, 64, 64]               0
         MaxPool2d-8           [-1, 64, 64, 64]               0
            Conv2d-9           [-1, 64, 64, 64]           4,096
           Conv2d-10           [-1, 64, 64, 64]           4,096
      BatchNorm2d-11           [-1, 64, 64, 64]             128
             ReLU-12           [-1, 64, 64, 64]               0
      BatchNorm2d-13           [-1, 64, 64, 64]             128
             ReLU-14           [-1, 64, 64, 64]               0
           Conv2d-15           [-1, 64, 64, 64]          36,864
           Conv2d-16           [-1, 64, 64, 64]          36,864
      BatchNorm2d-17           [-1, 64, 64, 64]             128
             ReLU-18           [-1, 64, 64, 64]               0
      BatchNorm2d-19           [-1, 64, 64, 64]             128
             ReLU-20           [-1, 64, 64, 64]               0
           Conv2d-21          [-1, 256, 64, 64]          16,384
           Conv2d-22          [-1, 256, 64, 64]          16,384
      BatchNorm2d-23          [-1, 256, 64, 64]             512
      BatchNorm2d-24          [-1, 256, 64, 64]             512
           Conv2d-25          [-1, 256, 64, 64]          16,384
           Conv2d-26          [-1, 256, 64, 64]          16,384
      BatchNorm2d-27          [-1, 256, 64, 64]             512
      BatchNorm2d-28          [-1, 256, 64, 64]             512
             ReLU-29          [-1, 256, 64, 64]               0
       Bottleneck-30          [-1, 256, 64, 64]               0
             ReLU-31          [-1, 256, 64, 64]               0
       Bottleneck-32          [-1, 256, 64, 64]               0
           Conv2d-33           [-1, 64, 64, 64]          16,384
           Conv2d-34           [-1, 64, 64, 64]          16,384
      BatchNorm2d-35           [-1, 64, 64, 64]             128
             ReLU-36           [-1, 64, 64, 64]               0
      BatchNorm2d-37           [-1, 64, 64, 64]             128
           Conv2d-38           [-1, 64, 64, 64]          36,864
             ReLU-39           [-1, 64, 64, 64]               0
           Conv2d-40           [-1, 64, 64, 64]          36,864
      BatchNorm2d-41           [-1, 64, 64, 64]             128
             ReLU-42           [-1, 64, 64, 64]               0
           Conv2d-43          [-1, 256, 64, 64]          16,384
      BatchNorm2d-44           [-1, 64, 64, 64]             128
             ReLU-45           [-1, 64, 64, 64]               0
      BatchNorm2d-46          [-1, 256, 64, 64]             512
           Conv2d-47          [-1, 256, 64, 64]          16,384
             ReLU-48          [-1, 256, 64, 64]               0
       Bottleneck-49          [-1, 256, 64, 64]               0
      BatchNorm2d-50          [-1, 256, 64, 64]             512
           Conv2d-51           [-1, 64, 64, 64]          16,384
             ReLU-52          [-1, 256, 64, 64]               0
       Bottleneck-53          [-1, 256, 64, 64]               0
      BatchNorm2d-54           [-1, 64, 64, 64]             128
           Conv2d-55           [-1, 64, 64, 64]          16,384
             ReLU-56           [-1, 64, 64, 64]               0
           Conv2d-57           [-1, 64, 64, 64]          36,864
      BatchNorm2d-58           [-1, 64, 64, 64]             128
      BatchNorm2d-59           [-1, 64, 64, 64]             128
             ReLU-60           [-1, 64, 64, 64]               0
             ReLU-61           [-1, 64, 64, 64]               0
           Conv2d-62           [-1, 64, 64, 64]          36,864
           Conv2d-63          [-1, 256, 64, 64]          16,384
      BatchNorm2d-64           [-1, 64, 64, 64]             128
      BatchNorm2d-65          [-1, 256, 64, 64]             512
             ReLU-66           [-1, 64, 64, 64]               0
           Conv2d-67          [-1, 256, 64, 64]          16,384
             ReLU-68          [-1, 256, 64, 64]               0
       Bottleneck-69          [-1, 256, 64, 64]               0
      BatchNorm2d-70          [-1, 256, 64, 64]             512
             ReLU-71          [-1, 256, 64, 64]               0
       Bottleneck-72          [-1, 256, 64, 64]               0
           Conv2d-73          [-1, 128, 64, 64]          32,768
           Conv2d-74          [-1, 128, 64, 64]          32,768
      BatchNorm2d-75          [-1, 128, 64, 64]             256
      BatchNorm2d-76          [-1, 128, 64, 64]             256
             ReLU-77          [-1, 128, 64, 64]               0
             ReLU-78          [-1, 128, 64, 64]               0
           Conv2d-79          [-1, 128, 32, 32]         147,456
           Conv2d-80          [-1, 128, 32, 32]         147,456
      BatchNorm2d-81          [-1, 128, 32, 32]             256
      BatchNorm2d-82          [-1, 128, 32, 32]             256
             ReLU-83          [-1, 128, 32, 32]               0
             ReLU-84          [-1, 128, 32, 32]               0
           Conv2d-85          [-1, 512, 32, 32]          65,536
           Conv2d-86          [-1, 512, 32, 32]          65,536
      BatchNorm2d-87          [-1, 512, 32, 32]           1,024
      BatchNorm2d-88          [-1, 512, 32, 32]           1,024
           Conv2d-89          [-1, 512, 32, 32]         131,072
           Conv2d-90          [-1, 512, 32, 32]         131,072
      BatchNorm2d-91          [-1, 512, 32, 32]           1,024
      BatchNorm2d-92          [-1, 512, 32, 32]           1,024
             ReLU-93          [-1, 512, 32, 32]               0
       Bottleneck-94          [-1, 512, 32, 32]               0
             ReLU-95          [-1, 512, 32, 32]               0
       Bottleneck-96          [-1, 512, 32, 32]               0
           Conv2d-97          [-1, 128, 32, 32]          65,536
      BatchNorm2d-98          [-1, 128, 32, 32]             256
             ReLU-99          [-1, 128, 32, 32]               0
          Conv2d-100          [-1, 128, 32, 32]          65,536
     BatchNorm2d-101          [-1, 128, 32, 32]             256
          Conv2d-102          [-1, 128, 32, 32]         147,456
            ReLU-103          [-1, 128, 32, 32]               0
     BatchNorm2d-104          [-1, 128, 32, 32]             256
            ReLU-105          [-1, 128, 32, 32]               0
          Conv2d-106          [-1, 512, 32, 32]          65,536
     BatchNorm2d-107          [-1, 512, 32, 32]           1,024
            ReLU-108          [-1, 512, 32, 32]               0
      Bottleneck-109          [-1, 512, 32, 32]               0
          Conv2d-110          [-1, 128, 32, 32]          65,536
     BatchNorm2d-111          [-1, 128, 32, 32]             256
            ReLU-112          [-1, 128, 32, 32]               0
          Conv2d-113          [-1, 128, 32, 32]         147,456
     BatchNorm2d-114          [-1, 128, 32, 32]             256
            ReLU-115          [-1, 128, 32, 32]               0
          Conv2d-116          [-1, 512, 32, 32]          65,536
     BatchNorm2d-117          [-1, 512, 32, 32]           1,024
          Conv2d-118          [-1, 128, 32, 32]         147,456
            ReLU-119          [-1, 512, 32, 32]               0
      Bottleneck-120          [-1, 512, 32, 32]               0
          Conv2d-121          [-1, 128, 32, 32]          65,536
     BatchNorm2d-122          [-1, 128, 32, 32]             256
     BatchNorm2d-123          [-1, 128, 32, 32]             256
            ReLU-124          [-1, 128, 32, 32]               0
            ReLU-125          [-1, 128, 32, 32]               0
          Conv2d-126          [-1, 512, 32, 32]          65,536
          Conv2d-127          [-1, 128, 32, 32]         147,456
     BatchNorm2d-128          [-1, 512, 32, 32]           1,024
     BatchNorm2d-129          [-1, 128, 32, 32]             256
            ReLU-130          [-1, 128, 32, 32]               0
            ReLU-131          [-1, 512, 32, 32]               0
      Bottleneck-132          [-1, 512, 32, 32]               0
          Conv2d-133          [-1, 512, 32, 32]          65,536
          Conv2d-134          [-1, 128, 32, 32]          65,536
     BatchNorm2d-135          [-1, 512, 32, 32]           1,024
     BatchNorm2d-136          [-1, 128, 32, 32]             256
            ReLU-137          [-1, 512, 32, 32]               0
      Bottleneck-138          [-1, 512, 32, 32]               0
            ReLU-139          [-1, 128, 32, 32]               0
          Conv2d-140          [-1, 128, 32, 32]         147,456
     BatchNorm2d-141          [-1, 128, 32, 32]             256
            ReLU-142          [-1, 128, 32, 32]               0
          Conv2d-143          [-1, 512, 32, 32]          65,536
     BatchNorm2d-144          [-1, 512, 32, 32]           1,024
            ReLU-145          [-1, 512, 32, 32]               0
      Bottleneck-146          [-1, 512, 32, 32]               0
          Conv2d-147          [-1, 256, 32, 32]         131,072
          Conv2d-148          [-1, 128, 32, 32]          65,536
     BatchNorm2d-149          [-1, 256, 32, 32]             512
     BatchNorm2d-150          [-1, 128, 32, 32]             256
            ReLU-151          [-1, 256, 32, 32]               0
            ReLU-152          [-1, 128, 32, 32]               0
          Conv2d-153          [-1, 128, 32, 32]         147,456
     BatchNorm2d-154          [-1, 128, 32, 32]             256
            ReLU-155          [-1, 128, 32, 32]               0
          Conv2d-156          [-1, 512, 32, 32]          65,536
     BatchNorm2d-157          [-1, 512, 32, 32]           1,024
            ReLU-158          [-1, 512, 32, 32]               0
      Bottleneck-159          [-1, 512, 32, 32]               0
          Conv2d-160          [-1, 256, 16, 16]         589,824
     BatchNorm2d-161          [-1, 256, 16, 16]             512
            ReLU-162          [-1, 256, 16, 16]               0
          Conv2d-163          [-1, 256, 32, 32]         131,072
     BatchNorm2d-164          [-1, 256, 32, 32]             512
          Conv2d-165         [-1, 1024, 16, 16]         262,144
            ReLU-166          [-1, 256, 32, 32]               0
     BatchNorm2d-167         [-1, 1024, 16, 16]           2,048
          Conv2d-168         [-1, 1024, 16, 16]         524,288
     BatchNorm2d-169         [-1, 1024, 16, 16]           2,048
            ReLU-170         [-1, 1024, 16, 16]               0
      Bottleneck-171         [-1, 1024, 16, 16]               0
          Conv2d-172          [-1, 256, 16, 16]         589,824
     BatchNorm2d-173          [-1, 256, 16, 16]             512
            ReLU-174          [-1, 256, 16, 16]               0
          Conv2d-175         [-1, 1024, 16, 16]         262,144
     BatchNorm2d-176         [-1, 1024, 16, 16]           2,048
          Conv2d-177         [-1, 1024, 16, 16]         524,288
     BatchNorm2d-178         [-1, 1024, 16, 16]           2,048
            ReLU-179         [-1, 1024, 16, 16]               0
      Bottleneck-180         [-1, 1024, 16, 16]               0
          Conv2d-181          [-1, 256, 16, 16]         262,144
          Conv2d-182          [-1, 256, 16, 16]         262,144
     BatchNorm2d-183          [-1, 256, 16, 16]             512
     BatchNorm2d-184          [-1, 256, 16, 16]             512
            ReLU-185          [-1, 256, 16, 16]               0
            ReLU-186          [-1, 256, 16, 16]               0
          Conv2d-187          [-1, 256, 16, 16]         589,824
          Conv2d-188          [-1, 256, 16, 16]         589,824
     BatchNorm2d-189          [-1, 256, 16, 16]             512
     BatchNorm2d-190          [-1, 256, 16, 16]             512
            ReLU-191          [-1, 256, 16, 16]               0
            ReLU-192          [-1, 256, 16, 16]               0
          Conv2d-193         [-1, 1024, 16, 16]         262,144
          Conv2d-194         [-1, 1024, 16, 16]         262,144
     BatchNorm2d-195         [-1, 1024, 16, 16]           2,048
     BatchNorm2d-196         [-1, 1024, 16, 16]           2,048
            ReLU-197         [-1, 1024, 16, 16]               0
      Bottleneck-198         [-1, 1024, 16, 16]               0
          Conv2d-199          [-1, 256, 16, 16]         262,144
            ReLU-200         [-1, 1024, 16, 16]               0
      Bottleneck-201         [-1, 1024, 16, 16]               0
          Conv2d-202          [-1, 256, 16, 16]         262,144
     BatchNorm2d-203          [-1, 256, 16, 16]             512
            ReLU-204          [-1, 256, 16, 16]               0
     BatchNorm2d-205          [-1, 256, 16, 16]             512
          Conv2d-206          [-1, 256, 16, 16]         589,824
            ReLU-207          [-1, 256, 16, 16]               0
          Conv2d-208          [-1, 256, 16, 16]         589,824
     BatchNorm2d-209          [-1, 256, 16, 16]             512
     BatchNorm2d-210          [-1, 256, 16, 16]             512
            ReLU-211          [-1, 256, 16, 16]               0
          Conv2d-212         [-1, 1024, 16, 16]         262,144
            ReLU-213          [-1, 256, 16, 16]               0
          Conv2d-214         [-1, 1024, 16, 16]         262,144
     BatchNorm2d-215         [-1, 1024, 16, 16]           2,048
     BatchNorm2d-216         [-1, 1024, 16, 16]           2,048
            ReLU-217         [-1, 1024, 16, 16]               0
      Bottleneck-218         [-1, 1024, 16, 16]               0
            ReLU-219         [-1, 1024, 16, 16]               0
      Bottleneck-220         [-1, 1024, 16, 16]               0
          Conv2d-221          [-1, 256, 16, 16]         262,144
          Conv2d-222          [-1, 256, 16, 16]         262,144
     BatchNorm2d-223          [-1, 256, 16, 16]             512
            ReLU-224          [-1, 256, 16, 16]               0
     BatchNorm2d-225          [-1, 256, 16, 16]             512
          Conv2d-226          [-1, 256, 16, 16]         589,824
            ReLU-227          [-1, 256, 16, 16]               0
     BatchNorm2d-228          [-1, 256, 16, 16]             512
          Conv2d-229          [-1, 256, 16, 16]         589,824
            ReLU-230          [-1, 256, 16, 16]               0
     BatchNorm2d-231          [-1, 256, 16, 16]             512
          Conv2d-232         [-1, 1024, 16, 16]         262,144
            ReLU-233          [-1, 256, 16, 16]               0
     BatchNorm2d-234         [-1, 1024, 16, 16]           2,048
          Conv2d-235         [-1, 1024, 16, 16]         262,144
            ReLU-236         [-1, 1024, 16, 16]               0
      Bottleneck-237         [-1, 1024, 16, 16]               0
     BatchNorm2d-238         [-1, 1024, 16, 16]           2,048
          Conv2d-239          [-1, 256, 16, 16]         262,144
            ReLU-240         [-1, 1024, 16, 16]               0
      Bottleneck-241         [-1, 1024, 16, 16]               0
     BatchNorm2d-242          [-1, 256, 16, 16]             512
          Conv2d-243          [-1, 256, 16, 16]         262,144
            ReLU-244          [-1, 256, 16, 16]               0
          Conv2d-245          [-1, 256, 16, 16]         589,824
     BatchNorm2d-246          [-1, 256, 16, 16]             512
     BatchNorm2d-247          [-1, 256, 16, 16]             512
            ReLU-248          [-1, 256, 16, 16]               0
            ReLU-249          [-1, 256, 16, 16]               0
          Conv2d-250          [-1, 256, 16, 16]         589,824
          Conv2d-251         [-1, 1024, 16, 16]         262,144
     BatchNorm2d-252          [-1, 256, 16, 16]             512
     BatchNorm2d-253         [-1, 1024, 16, 16]           2,048
            ReLU-254          [-1, 256, 16, 16]               0
          Conv2d-255         [-1, 1024, 16, 16]         262,144
            ReLU-256         [-1, 1024, 16, 16]               0
      Bottleneck-257         [-1, 1024, 16, 16]               0
          Conv2d-258          [-1, 256, 16, 16]         262,144
     BatchNorm2d-259         [-1, 1024, 16, 16]           2,048
     BatchNorm2d-260          [-1, 256, 16, 16]             512
            ReLU-261         [-1, 1024, 16, 16]               0
      Bottleneck-262         [-1, 1024, 16, 16]               0
            ReLU-263          [-1, 256, 16, 16]               0
          Conv2d-264          [-1, 256, 16, 16]         262,144
          Conv2d-265          [-1, 256, 16, 16]         589,824
     BatchNorm2d-266          [-1, 256, 16, 16]             512
     BatchNorm2d-267          [-1, 256, 16, 16]             512
            ReLU-268          [-1, 256, 16, 16]               0
            ReLU-269          [-1, 256, 16, 16]               0
          Conv2d-270         [-1, 1024, 16, 16]         262,144
     BatchNorm2d-271         [-1, 1024, 16, 16]           2,048
            ReLU-272         [-1, 1024, 16, 16]               0
      Bottleneck-273         [-1, 1024, 16, 16]               0
          Conv2d-274          [-1, 256, 16, 16]         589,824
     BatchNorm2d-275          [-1, 256, 16, 16]             512
            ReLU-276          [-1, 256, 16, 16]               0
          Conv2d-277         [-1, 1024, 16, 16]         262,144
          Conv2d-278          [-1, 512, 16, 16]         524,288
     BatchNorm2d-279          [-1, 512, 16, 16]           1,024
     BatchNorm2d-280         [-1, 1024, 16, 16]           2,048
            ReLU-281          [-1, 512, 16, 16]               0
            ReLU-282         [-1, 1024, 16, 16]               0
      Bottleneck-283         [-1, 1024, 16, 16]               0
          Conv2d-284            [-1, 512, 8, 8]       2,359,296
          Conv2d-285          [-1, 512, 16, 16]         524,288
     BatchNorm2d-286            [-1, 512, 8, 8]           1,024
            ReLU-287            [-1, 512, 8, 8]               0
     BatchNorm2d-288          [-1, 512, 16, 16]           1,024
            ReLU-289          [-1, 512, 16, 16]               0
          Conv2d-290           [-1, 2048, 8, 8]       1,048,576
     BatchNorm2d-291           [-1, 2048, 8, 8]           4,096
          Conv2d-292            [-1, 512, 8, 8]       2,359,296
     BatchNorm2d-293            [-1, 512, 8, 8]           1,024
            ReLU-294            [-1, 512, 8, 8]               0
          Conv2d-295           [-1, 2048, 8, 8]       2,097,152
     BatchNorm2d-296           [-1, 2048, 8, 8]           4,096
            ReLU-297           [-1, 2048, 8, 8]               0
      Bottleneck-298           [-1, 2048, 8, 8]               0
          Conv2d-299           [-1, 2048, 8, 8]       1,048,576
          Conv2d-300            [-1, 512, 8, 8]       1,048,576
     BatchNorm2d-301           [-1, 2048, 8, 8]           4,096
     BatchNorm2d-302            [-1, 512, 8, 8]           1,024
            ReLU-303            [-1, 512, 8, 8]               0
          Conv2d-304           [-1, 2048, 8, 8]       2,097,152
     BatchNorm2d-305           [-1, 2048, 8, 8]           4,096
          Conv2d-306            [-1, 512, 8, 8]       2,359,296
     BatchNorm2d-307            [-1, 512, 8, 8]           1,024
            ReLU-308           [-1, 2048, 8, 8]               0
      Bottleneck-309           [-1, 2048, 8, 8]               0
            ReLU-310            [-1, 512, 8, 8]               0
          Conv2d-311           [-1, 2048, 8, 8]       1,048,576
     BatchNorm2d-312           [-1, 2048, 8, 8]           4,096
            ReLU-313           [-1, 2048, 8, 8]               0
      Bottleneck-314           [-1, 2048, 8, 8]               0
          Conv2d-315            [-1, 512, 8, 8]       1,048,576
     BatchNorm2d-316            [-1, 512, 8, 8]           1,024
            ReLU-317            [-1, 512, 8, 8]               0
          Conv2d-318            [-1, 512, 8, 8]       2,359,296
          Conv2d-319            [-1, 512, 8, 8]       1,048,576
     BatchNorm2d-320            [-1, 512, 8, 8]           1,024
            ReLU-321            [-1, 512, 8, 8]               0
     BatchNorm2d-322            [-1, 512, 8, 8]           1,024
          Conv2d-323           [-1, 2048, 8, 8]       1,048,576
            ReLU-324            [-1, 512, 8, 8]               0
     BatchNorm2d-325           [-1, 2048, 8, 8]           4,096
            ReLU-326           [-1, 2048, 8, 8]               0
      Bottleneck-327           [-1, 2048, 8, 8]               0
          Conv2d-328            [-1, 512, 8, 8]       2,359,296
     BatchNorm2d-329            [-1, 512, 8, 8]           1,024
            ReLU-330            [-1, 512, 8, 8]               0
          Conv2d-331           [-1, 2048, 8, 8]       1,048,576
     BatchNorm2d-332           [-1, 2048, 8, 8]           4,096
            ReLU-333           [-1, 2048, 8, 8]               0
      Bottleneck-334           [-1, 2048, 8, 8]               0
          Conv2d-335            [-1, 512, 8, 8]       1,048,576
     BatchNorm2d-336            [-1, 512, 8, 8]           1,024
            ReLU-337            [-1, 512, 8, 8]               0
          Conv2d-338            [-1, 512, 8, 8]       2,359,296
     BatchNorm2d-339            [-1, 512, 8, 8]           1,024
            ReLU-340            [-1, 512, 8, 8]               0
          Conv2d-341           [-1, 2048, 8, 8]       1,048,576
     BatchNorm2d-342           [-1, 2048, 8, 8]           4,096
            ReLU-343           [-1, 2048, 8, 8]               0
      Bottleneck-344           [-1, 2048, 8, 8]               0
AdaptiveAvgPool2d-345           [-1, 2048, 1, 1]               0
AdaptiveAvgPool2d-346           [-1, 2048, 1, 1]               0
          Linear-347                   [-1, 47]          96,303
          ResNet-348                   [-1, 47]               0
          Linear-349                   [-1, 47]          96,303
          ResNet-350                   [-1, 47]               0
================================================================
Total params: 47,208,670
Trainable params: 192,606
Non-trainable params: 47,016,064
----------------------------------------------------------------
Input size (MB): 0.75
Forward/backward pass size (MB): 748.53
Params size (MB): 180.09
Estimated Total Size (MB): 929.37
----------------------------------------------------------------
…
